ReinforcementLearning/bc_final.pth (torch, 75551 bytes, 6 tensors)

trunk.0.weight f4 [128, 11]
00000000: ef97 1fbe 95ef ccbd e817 953e 91ed 35be
00000010: 7bbf bf3d 8ae6 243e c8c9 eebd 5fcc ef3d
00000020: a299 653e 3ce5 2abe e0e4 93be 0497 793e
00000030: 4bc6 2d3c e6af 683e e961 51be 9e89 78be
00000040: efe9 a4bd 1138 e83d 1083 f8bd 7d99 73be
00000050: c840 383e 790a 813e 1a5f 92be 1039 43bd
00000060: 1d44 a3bd 28d4 e9bd 3c5d 0c3e 03c0 90be
00000070: 78f9 353e 02d8 34be 707c da3d fff6 9f3d
00000080: ef1c 20be 15ff 90bd e851 e73d 9ebc 0ebd
00000090: 8312 d33c 3930 4fbd 291d f6bd 8212 7dbe
000000a0: e588 dabd 633d 3f3e 12a1 cfbd 5f2d 57bc
000000b0: aa36 11bd 64cc a5bd 8355 b4be 47c4 793d
000000c0: c657 493d 9938 5e3e 10ab 253e e5b1 743e
000000d0: 1892 953e de22 0fbe 196c 763e aea6 dcbd
000000e0: c0c2 583c af1c 783d 2873 3d3c e8cb fdbd
000000f0: 8b95 573c 8bb9 acbb 3ae8 fbbc d6bb 3b3e
00000100: 666f 94bd 713b 5a3e 9cf7 8dbe 2806 89be
00000110: 41ee 8b3e 8dae 2cbe 90b3 5fbd ad3f 4cbe
00000120: b616 073e 418f 8c3e f5a5 b9bb 1c71 bdbe
00000130: ab64 313e 57a7 7d3e 47aa 2fbe 6682 8f3d
00000140: 75ad 473e 44f8 ad3e a1cc 8b3d 90e3 b5bd
00000150: 7063 0b3e bc43 0cbd c7e7 cfbd 244d 6ebe
00000160: e9f4 9cbe dec1 6d3d aad7 5fbd e7d7 9d3e
00000170: 49e6 c2be dfe8 8bbe ecb7 4ebe 2ebd c93d
00000180: 9367 233e 94ce 7a3d 1cc5 d93d 3e4f 1fbe
00000190: 1868 933e 9852 a63d 5701 dabd 578c 7f3c
000001a0: 3c20 623e e7a0 bc3d 3bf8 853e f640 c5bd
000001b0: faf3 623e e55c 99be 2dd5 d3bd 3e01 36be
000001c0: 7621 81be 857e 663e 73d9 973e c9e9 8cbe
000001d0: f7dd 47be 7d25 443d 78ff a03e 5af7 1a3e
000001e0: 6d4a 313e 0380 a0be 4ab1 bd3d 066a f93d
000001f0: 7bd1 883e 4132 b4bd b9bc 9abe 6db3 85bd
00000200: 5ef4 2f3e ad39 da3d 990f 6cbe 8ce6 583e
00000210: 6dd7 073d 4996 7e3e 0dc4 2c3d 6d77 c1bd
00000220: 7980 963b 0084 38be 1bca 603e 71b8 2e3e
00000230: 5ce6 613d 4287 b3be 1fb2 703e 07c5 23be
00000240: 4ee0 733e 9db0 c6bd 9d6f 6dbe 49dc 2bbe
00000250: cae9 8ebe da7d ee3c 149b d33d 9f01 d23d
00000260: 92e3 f23e 5fcd 703e 2e27 81bd 63f4 083d
00000270: 9bf9 43be 808f 27bd 7785 673d 8742 1f3e
00000280: 39fa fc3d 7fa9 b63d 13b1 d0be bc37 5a3e
00000290: 9d5f 2a3d d738 813e 4e58 b33d 11d3 b8bd
000002a0: bda0 853e cb02 8e3e 170e e23d b779 a23d
000002b0: c2e0 52bd 5c55 59be 977e e53d 0a7a 783e
000002c0: 7169 903e 515d b4bd 6202 c0bd 947a 9e3d
000002d0: 6c2c 0d3e 08c9 9bbd 8f48 af3c 9661 97bd
000002e0: 7534 57be 55e0 983e 4e45 a83d 7ad9 33bc
000002f0: b6ad 803e cd75 f0bc 5005 92be 0ed5 c9be
00000300: 4351 b93e 14eb f1bb eb90 b03d 7dc3 ce3c
00000310: 4baa d1bd a921 9a3c 82e6 36be b839 35be
00000320: 82b8 db3d a123 73bb 5637 8dbe 14fa 5abe
00000330: 558d 55bd a4f1 67be 3eb7 88bd 8174 8f3e
00000340: 6fbc 983e ad0e ff3c dcfe 65be d603 87be
00000350: 5024 123e bcc6 9fbe 091c 8abe ebff 9d3d
00000360: ccae 33be 72d4 67bd 0107 913e 7b6d 37be
00000370: 7d64 693d 8b7a 2dbe ec81 c23d 5142 12be
00000380: e53e 503e b9da 80be 912a 383e 00c3 2abe
00000390: d93e 8f3d a806 74be d584 dabd 28ba 94be
000003a0: 891e 423e f48d 0e3e 45de b7bd fb6b 593e
000003b0: a7e9 ae3e fbf1 803e 0166 3dbe c84a 583d
000003c0: 904b 423e f981 613e f6d7 ddbd db1f 313e
000003d0: 008a 74be e0a5 2d3e 2b16 9fbd d61c 8cbe
000003e0: 1f17 553e 5c5a 033e 52c9 723e c7a6 e43b
000003f0: a5b3 bfbc 0069 d73d 8402 56be 5d47 b7bd
-0.15585302 -0.10006634 0.29119802 -0.17766406 0.09362694 0.16103569 -0.116595805 0.117089026
0.22421888 -0.16689008 -0.28885555 0.24374014 0.010606359 0.2272335 -0.20447506 -0.24271247
-0.08052432 0.11338819 -0.12134373 -0.2378902 0.17993462 0.25203303 -0.28588182 -0.04766184
-0.07971976 -0.11417419 0.13707441 -0.28271493 0.17770946 -0.17660525 0.10668266 0.07810783
-0.15636037 -0.07079903 0.11294919 -0.034847848 0.025765663 -0.050583098 -0.120172806 -0.24714091
-0.10670642 0.18675761 -0.101381436 -0.013133376 -0.035452522 -0.08095625 -0.3522149 0.0609782
0.049155973 0.21701278 0.16178536 0.23895986 0.29213023 -0.13978145 0.24064673 -0.10773979
0.013230026 0.06057423 0.0115631 -0.12392408 0.013158212 -0.005271142 -0.030750383 0.18333372
-0.0724781 0.21311738 -0.27727973 -0.2676251 0.2733021 -0.16863461 -0.054614604 -0.19946165
0.13192257 0.27453044 -0.0056655356 -0.37000358 0.17323558 0.24770866 -0.171548 0.070072934
0.19499762 0.33978474 0.06826139 -0.08881295 0.13612151 -0.034244284 -0.1015163 -0.23271614
-0.30655602 0.058046214 -0.054649033 0.30828783 -0.3806632 -0.27326104 -0.20187348 0.09850536
0.15957479 0.061232165 0.10633299 -0.15557572 0.28790355 0.08121222 -0.10644787 0.0155974245
0.22082609 0.09210377 0.26165947 -0.09631531 0.22163382 -0.29953685 -0.103433944 -0.17773911
-0.2522084 0.22509201 0.29658088 -0.27522114 -0.19518267 0.047887314 0.31444907 0.1513342
0.17313547 -0.31347665 0.09262331 0.121784255 0.2672232 -0.08798648 -0.3022211 -0.065283634
0.17183062 0.10655532 -0.23052825 0.21181697 0.03316443 0.24862017 0.042179156 -0.09446607
0.004592952 -0.18019104 0.21952097 0.17062546 0.05515133 -0.3506413 0.23505448 -0.15993129
0.23816034 -0.09701655 -0.23187108 -0.16783251 -0.27912742 0.029112745 0.10332313 0.102542154
0.47439247 0.23515843 -0.06306301 0.03343619 -0.19138186 -0.040908337 0.056523766 0.15552722
0.12352414 0.089190476 -0.40760097 0.21310323 0.04159509 0.25238678 0.08757077 -0.09024633
0.26099196 0.27736506 0.11037844 0.079333715 -0.051483877 -0.21223968 0.11205786 0.24265304
0.28205445 -0.08806861 -0.093754545 0.07738224 0.13786477 -0.07606703 0.021396903 -0.0739166
-0.21016105 0.29858652 0.08216344 -0.010977143 0.2513253 -0.029353047 -0.28519678 -0.3942036
0.3619481 -0.00738276 0.08621391 0.0252397 -0.10237559 0.018814879 -0.17861369 -0.17697799
0.107285514 -0.0037100094 -0.2758128 -0.2138446 -0.052136738 -0.22650772 -0.06675576 0.28018573
0.29831263 0.031134928 -0.22460502 -0.26370114 0.14271665 -0.3120631 -0.26974514 0.07714828
-0.17547148 -0.056599088 0.28325656 -0.17912857 0.0569806 -0.16941278 0.09497437 -0.1428311
0.20336492 -0.25166872 0.17984988 -0.16675949 0.06994409 -0.23830664 -0.10669867 -0.29048276
0.1895696 0.13921338 -0.089779414 0.21232598 0.34162638 0.25184616 -0.18495943 0.052805692
0.18974137 0.22022237 -0.10832207 0.17297308 -0.23880768 0.16957808 -0.077679 -0.2736575
0.20809601 0.12827438 0.2370961 0.006977889 -0.02340109 0.10518074 -0.20899397 -0.08949158

trunk.0.bias f4 [128]
00000000: 98f0 fd3d 2241 e8bd e68a 53be 4a51 343e
00000010: 2102 283e 9354 52be 02d1 b93c df7d 9ebd
00000020: 0ea9 6c3d 6487 513e d701 993e b0a8 8f3e
00000030: 9047 fabb b098 363c 9af9 df3d 0e51 72bc
00000040: 2427 063e 2838 32be 7803 debd c5c6 5f3e
00000050: 91b3 febd 33f1 3d3e be97 99bc a4ab 24be
00000060: a594 19be 1c62 233e 9440 7cbe b853 8bbd
00000070: 374f 073e 128b 613d c1fc 9bbd 403f c03d
00000080: e176 09be 5942 863e 1a02 e53d a78c 8abe
00000090: 17d3 743e b5dd 47be f33a 3bbd ff63 99bd
000000a0: c3c8 90be 9c54 893e b119 653e 2803 aebd
000000b0: 5318 a9b9 1b21 ec3d edf6 be3d f5e6 49bc
000000c0: 7d5f a1bd d8b3 443e 9986 803e bf35 8d3d
000000d0: 3d58 e83d c150 1e3e 5b46 8d3c 8cb5 38be
000000e0: 8775 4bbd c414 893e cb9f 8fbe 5a9b 6b3e
000000f0: 3480 8ebe 3212 2dbe aedd 333e 858b 3dbc
00000100: fbfd 033e eb70 4e3e feed f5bd 4fc5 133e
00000110: e24c e23d 9390 a83d ef5b 15be 801d 24be
00000120: c3a3 803d faf2 3cba e4d5 923e e2f2 203d
00000130: 9e76 5bbd a779 55be 858e 5fbe c5c9 53be
00000140: a369 e8bd 4a0e 15bb 5cff 22be 6e5a 50bd
00000150: 2cd6 94bd df68 503d 39a5 96bd 3065 95be
00000160: 2422 b93d 94a9 e83d 0320 05bd 105e aabd
00000170: e990 913e ebfe 3b3e ad53 0cb8 1b7d 87bd
00000180: 4175 943c b98a ca3d 7bbd 52be 783a 5a3d
00000190: 9a5c 0ebe 7401 7dbe d041 38be c024 92bc
000001a0: e137 5a3e 98ef fa3d 2b4c 383e 6902 89be
000001b0: 503c 963e 831d 023e 135c 1a3e 7d50 07be
000001c0: 0277 5ebe 9db8 863e b38c 8ebd da52 20be
000001d0: bdcd 383e 9362 64be 2169 563e 14a1 23bd
000001e0: 28d6 25bc 3a57 263e d2e6 01bd 3191 35bc
000001f0: 75d2 cbbd 9d74 acbd 7eb2 b63d 872e 0abe
0.12399405 -0.11340548 -0.20658454 0.17609134 0.16407062 -0.20540075 0.02268267 -0.07738852
0.05777841 0.20461804 0.29884216 0.28058386 -0.0076379254 0.011144802 0.109362796 -0.014789833
0.13100868 -0.17404234 -0.10840505 0.21853168 -0.12436593 0.18549041 -0.018749114 -0.160811
-0.1499811 0.15955395 -0.2463401 -0.068030775 0.13213812 0.05506427 -0.07616568 0.09387064
-0.13424255 0.26222494 0.111820415 -0.27060434 0.2390865 -0.19518168 -0.045710515 -0.07489776
-0.2827817 0.26822364 0.22373082 -0.08496696 -0.00032252315 0.11529752 0.09324441 -0.012323131
-0.07879541 0.1920923 0.2510269 0.06895017 0.11344955 0.15460493 0.017245462 -0.18038005
-0.04967263 0.26773655 -0.280516 0.2300848 -0.27832186 -0.16901472 0.17565033 -0.011568909
0.12889855 0.20160262 -0.12008284 0.14430736 0.110498205 0.082307 -0.14585851 -0.16026878
0.06281235 -0.0007207837 0.2867881 0.03929413 -0.05357992 -0.20847188 -0.2183171 -0.20682438
-0.113482736 -0.0022744113 -0.15917724 -0.05086749 -0.072674125 0.050881263 -0.073557325 -0.29178762
0.09039715 0.113604695 -0.032501232 -0.08318722 0.2843087 0.18358962 -3.345653e-05 -0.06615659
0.018122317 0.098897405 -0.20580094 0.053278416 -0.13902512 -0.24707586 -0.17993855 -0.01783979
0.21310379 0.1225273 0.17997806 -0.2675965 0.2934289 0.1270657 0.15074186 -0.13214298
-0.21725085 0.26312724 -0.0696043 -0.15656605 0.18047233 -0.22303228 0.20938541 -0.039948538
-0.01012186 0.16244212 -0.031714268 -0.01108198 -0.09952251 -0.0842068 0.089207634 -0.13494311

trunk.2.weight f4 [128, 128]
00000000: eefb a0bd b134 963d f4be 3b3d a190 a43c
00000010: 00ba 9e3c ec49 a83d 5f99 a8bd 356c 6f3c
00000020: fda7 6b3d 4299 fe3b deab 27bd 0839 2fbd
00000030: cab3 b6bd b95b 89bd 214c 5fbc 008d ba3c
00000040: bac3 0b3d f272 4fb9 d6c5 dfbc 80c8 2cbd
00000050: 421c 0a3b 9e99 a8bd faf9 c2bd 4cae f93b
00000060: b14f 203d 88a4 9e3c 8b4a ec3b fb75 913c
00000070: 2b54 0dbd 976d 583d 054d b3bc 9b52 9ebd
00000080: 8b83 b0bd aa13 d6bc ea4c 423d 48a6 a7bd
00000090: fe24 983d df3e 86bd 2999 033d 46fe 463c
000000a0: ecaa 30bd e5cb c03c 0519 993d 99be 68bd
000000b0: 56c1 85bc 4def fabc f94f 0e3d a8f8 aebd
000000c0: 1555 2d3d e06f 073d bcbc 31bd 7ce1 b2bd
000000d0: 7caa 05bd 05d4 dd3c a062 1abd 3cc9 163d
000000e0: e2fb a1bd 8769 a33d d05c 0e3d 100d 183c
000000f0: 271b a33d f3c2 82bd 1e32 0bbd 9d83 6cbd
00000100: 72e4 63bd 3d6d 973d 8a5f a53d e48d 2f3d
00000110: a168 543d 5c9d 2bbd 3c77 9abd 8c4d c0bc
00000120: 364e 85bd 0bc2 a63d 7afa 02bd c3c2 59bd
00000130: 5bb1 68bd 164e 7b3d 9498 46bd 4b29 65bd
00000140: e068 78bd 3f5c 65bd 6da1 a53d 0c6c 773d
00000150: a651 28bd 9a65 4b3d 0f76 88bd b59a 36bd
00000160: a818 73bc 7803 a73c 5df9 ac3c 7768 16bd
00000170: 8b43 a1bc bef2 6ebd d104 b43c a4dd 91bd
00000180: 33a3 d4bb c14d 9cbd ef9e 12bd a4bc 94bd
00000190: 6efd b1bc e27d 3c3d 0dfe 65bd 87a3 6e3d
000001a0: 07a0 47bd 37c5 aa3c 28ca 133d c0d9 3cbd
000001b0: 4bf8 4b3d fa05 903d bdac 81bd 34cf 553d
000001c0: 3e1e a3bd 2b8d a4bd 3d38 0b3d 0557 2c3d
000001d0: fbd1 92bd 963e 553c 87f4 ecbb e573 49bd
000001e0: fff7 acbd 8aab 893d 3c32 bbbb 10c6 a13c
000001f0: 00a1 b3bd 7815 97bd 55b6 dd3c 5255 f13c
00000200: 98f1 a5bd 90d5 95bb 1726 a73d e0d6 193b
00000210: 686a d23c 0f13 f6bc cc7d 1b3d afd1 c13b
00000220: 8bb1 69bc f750 103d 7997 903d c230 533d
00000230: f9a8 b6bc d474 233d da4f b0bb 7900 0d3d
00000240: 14cf e23c cb5c e73a 95c8 8d3d 55e9 b83c
00000250: 57b6 c93c 156c 073b df85 40bc 573f 24bd
00000260: dbcd 9b3d 02bd b0bd 7ac7 303d 6b7c c33d
00000270: beb4 afbc 7658 c53c ea32 453d 3d7e 073d
00000280: fdc8 f13c f160 91bd d54f 96bc 78de bbbb
00000290: f3c3 6fbd 1ba0 22bd d032 86bd 889e 853d
000002a0: f5d6 a6bc a66c c23c 0317 8a3d a78c dc3c
000002b0: cd68 05bc 7e1d 46bd 006b f53c a699 3dbd
000002c0: db54 653c 0295 e3bc ccc0 a6bc 288f c53d
000002d0: 2051 473d 57a1 723c 5696 4dbc 83cd 8fbc
000002e0: 3255 8cbd 9bdf 80bd 89de 2d3d 56b1 9dbd
000002f0: 8195 883c fea7 6a3a 863c 833d 5ea0 eb3b
00000300: 390d 4d3b 6d1c 3cbd 60d8 a53d 4870 24bc
00000310: 060c 933d dca0 853d 014a b53c af3c 123d
00000320: 4932 e03b 92cc db3d c342 63bd c98f 94bd
00000330: 6a94 b63b 06c2 2d3b 1b7d 2e3d 4fc7 2fbc
00000340: dc07 a43d e647 65bd 3a7b 9cbd 6f90 413c
00000350: 88cd 2dba 1c36 663d b0ea 92bd 72e3 c23c
00000360: d6c4 6bbd 2e52 4abd fd3c 293d fa2f b0bd
00000370: 6c1d a3bc 97e7 2b3d bd7e 54bd fdf1 953d
00000380: b7d9 31bd 51cf 923d aed9 7e3d 8503 18bd
00000390: 5dae cb3d a72a a33b a9e1 283c 43bf cebd
000003a0: d5c9 b4bc bfe3 743c e3e1 843d a643 423d
000003b0: 75af a73d 4826 173d 9039 6d3d 41f6 45bc
000003c0: 0c0e b33c 12e6 01bd 4af4 f5bc d4f5 903d
000003d0: 2f69 a03d 771e 99ba 5faf aebd 6c40 29bc
000003e0: 5bab f63c 8686 86bc 3e07 e53b 3e13 60bc
000003f0: 1f0f 83bc c10b ba3d 7116 8cbd 6ec3 36bb
-0.07860552 0.07334269 0.045836404 0.020088496 0.019375801 0.082172245 -0.08232378 0.014613201
0.057533253 0.0077697346 -0.04093539 -0.042779 -0.08921011 -0.06706948 -0.01362899 0.022772312
0.034122206 -0.00019783879 -0.027316015 -0.0421834 0.0021073972 -0.08232425 -0.095203355 0.0076196548
0.0391385 0.019365564 0.0072110347 0.017756453 -0.034504097 0.052838888 -0.021887312 -0.077305995
-0.0861884 -0.026132423 0.047436632 -0.081860125 0.07428931 -0.065549605 0.032128487 0.012145584
-0.043131754 0.023534724 0.07475475 -0.056822393 -0.016327541 -0.030631686 0.034744237 -0.08543521
0.04231747 0.033065677 -0.04339288 -0.08734414 -0.03263329 0.027078638 -0.037691712 0.036813006
-0.07909371 0.07979112 0.03475648 0.009280458 0.07964163 -0.0638484 -0.033983342 -0.057742704
-0.055637784 0.073938824 0.08074863 0.042859927 0.051857594 -0.041898116 -0.075422734 -0.023474477
-0.06509058 0.081424795 -0.031977154 -0.053164255 -0.056809764 0.061353765 -0.048485354 -0.055947583
-0.06064689 -0.055996176 0.0808743 0.060405776 -0.04109349 0.04965744 -0.06663143 -0.044581134
-0.0148374215 0.020387396 0.021115 -0.03672072 -0.019685527 -0.058336966 0.021974953 -0.07122353
-0.0064891814 -0.07632018 -0.035796102 -0.07262543 -0.02172729 0.04601849 -0.056150485 0.05826142
-0.0487366 0.020845992 0.036081463 -0.0461061 0.049797338 0.0703239 -0.06331775 0.052199557
-0.079647526 -0.08034738 0.03398918 0.042075176 -0.07168957 0.01301541 -0.0072312984 -0.04918279
-0.08445739 0.067221716 -0.0057127755 0.019747764 -0.08770943 -0.07377142 0.027064482 0.02945963
-0.08102721 -0.004572578 0.08161562 0.0023474023 0.025685504 -0.030038385 0.037961766 0.005914889
-0.014263521 0.035233464 0.07060141 0.05156017 -0.02229737 0.039906338 -0.005380613 0.03442428
0.027686633 0.0017651556 0.069230236 0.022572199 0.02462308 0.0020663787 -0.011750667 -0.040099468
0.07607623 -0.086298004 0.043158986 0.09545215 -0.02144849 0.024090033 0.04814426 0.033079375
0.029514784 -0.07098568 -0.018348614 -0.0057333075 -0.05853648 -0.03970347 -0.065526605 0.06524378
-0.020366171 0.023733448 0.067426704 0.026922537 -0.008142662 -0.04836797 0.029958248 -0.04628911
0.013997282 -0.027781013 -0.020355605 0.096464455 0.04866135 0.014808974 -0.01254805 -0.01755405
-0.06852187 -0.06292649 0.042448554 -0.0769984 0.016672852 0.00089514244 0.06408028 0.007190748
0.00312884 -0.045925546 0.08097911 -0.010036536 0.07180028 0.06524822 0.022130014 0.035702404
0.006841932 0.10732378 -0.05548359 -0.07253987 0.0055718916 0.0026513352 0.04259978 -0.010728671
0.080093116 -0.05597677 -0.07640691 0.011814221 -0.0006630053 0.056203946 -0.07173669 0.023790095
-0.057560764 -0.04939478 0.04131793 -0.08602901 -0.01991149 0.04196891 -0.05187868 0.07321546
-0.04342052 0.07168449 0.062219314 -0.03711273 0.099453665 0.00497945 0.010307708 -0.10095074
-0.022068897 0.014946877 0.06488397 0.047427796 0.08187763 0.036901742 0.057916224 -0.012082637
0.021857284 -0.031713553 -0.030023713 0.07078138 0.07832562 -0.0011682053 -0.08529543 -0.010330301
0.030111006 -0.016421568 0.0069893887 -0.013676463 -0.015998421 0.09084273 -0.06840218 -0.0027887481

trunk.2.bias f4 [128]
00000000: 41d8 b9bd addb 0b3d 47fc aebd f035 8fbd
00000010: f959 9bbd c1cc 7ebd f4b2 2b3d 5808 b2bd
00000020: bdaa 0a3c 0a17 7dbd ae72 f6bc 3fec aebd
00000030: 969e 8dbd 7ab9 89bd bd20 37bc c693 b23d
00000040: 0816 42bd 5ae9 14bd 9ec4 4fbd 54a1 a03d
00000050: fcc2 a83d ef38 8d3d 9614 5ebd 47fc 1cbd
00000060: de5e 323d 9569 08bc 2a2a 28bd 267f 6f3b
00000070: 6bf2 88bd f6c1 6fbd 7e19 243d f0ae 393c
00000080: 8146 36bd dca8 323d 99d8 933d 72ae 84bc
00000090: a397 903d 21b6 b2bd 845d 303d 84cd 15bd
000000a0: 5b40 8ebd 261c 5abd 9ee0 8abd b9de 5bbc
000000b0: f4ff 14bb 68e2 ad3c 8830 a2bd 3d39 093d
000000c0: 97ef 5b3d 9721 8abd 8464 dcbb ba74 a7bd
000000d0: cd94 043d 8263 483d 71d6 cfbc 2e6f a43d
000000e0: 8e23 1dbd 89b3 22bc 127d 9bbd f3a0 163d
000000f0: 723f 82bd 95d8 b8bb 14a2 713d 0a05 903d
00000100: ef61 c73b 0743 1b3c 101f a4bd 06ed 4d3d
00000110: 7156 7f3d 4129 78bd a401 01bd a232 ebbc
00000120: 99d6 a9bd 9085 7f3d 501c 7bbc 4e2b a0bd
00000130: 322f 9cbc 044b 66bd 2027 8c3d 8bd4 7b3d
00000140: dc5a cfba e65a 893d d524 13bd 85fb 4f3d
00000150: f373 93bd b4ed 83b9 67cb c53b 1fc8 51bd
00000160: e8b1 b0bd 108c 1a3d 51c9 033d e983 7fbc
00000170: 69b0 25bd 0daf bebc 116c 4fbd 64a0 4e3d
00000180: 0344 a13d 5a3a ab3d 7899 92bd 0693 343d
00000190: a624 51bd 92c2 9a3d 39e9 9b3d 3047 a5bd
000001a0: e095 42bd f3c1 203d d4cd 59bd 7f83 923d
000001b0: 4011 183d 2b02 dbb8 17dd 76bd 97b9 c5bc
000001c0: d32e b3bd 92bf 9f3d 0969 8c3d ed8c bfba
000001d0: 6c79 3cbd 98ae b3bd 7cd5 64bd 16a7 97bd
000001e0: 18ad 8a3d b7b2 b03c f988 b33c 5e94 803b
000001f0: 2431 2b3d 6b84 ad3d f402 d4bc 20ea d9bc
-0.0907445 0.034145046 -0.08544212 -0.0699271 -0.0758552 -0.062206987 0.04191871 -0.08692998
0.008463559 -0.06178955 -0.03008398 -0.08541154 -0.069150135 -0.0672483 -0.011177239 0.08719592
-0.047384292 -0.036355354 -0.050724618 0.07843271 0.08240315 0.06895625 -0.05421885 -0.038326528
0.043547504 -0.008325954 -0.041055836 0.0036544292 -0.066868626 -0.058534585 0.040063374 0.011333212
-0.04450083 0.043618068 0.07219047 -0.016196463 0.070601724 -0.087261446 0.043057933 -0.036572948
-0.069458686 -0.0532495 -0.067811236 -0.0134198 -0.0022735568 0.021226123 -0.07919413 0.033501852
0.053695288 -0.06744688 -0.0067258496 -0.08176561 0.03236847 0.048923023 -0.025370808 0.08029018
-0.038363986 -0.0099305 -0.07592215 0.036774587 -0.063597575 -0.005641053 0.05899246 0.07032211
0.0060846726 0.00947643 -0.08013737 0.05027487 0.062338296 -0.060586218 -0.031495705 -0.028710667
-0.082928844 0.062383235 -0.015326574 -0.0782076 -0.019065473 -0.056223884 0.068434 0.061481994
-0.0015819925 0.067067906 -0.035923798 0.050776977 -0.0719985 -0.0002516337 0.0060362103 -0.05121624
-0.08627683 0.03773123 0.032174412 -0.015595415 -0.04045144 -0.02327683 -0.05064017 0.05044593
0.078743 0.08360739 -0.07158178 0.044085525 -0.05106034 0.075566426 0.07612843 -0.080702186
-0.047506213 0.039247464 -0.05317481 0.07153987 0.037125826 -0.000104431376 -0.06026944 -0.024136348
-0.087491654 0.07800211 0.06855971 -0.0014614143 -0.046014234 -0.087735355 -0.055867657 -0.07404916
0.06771296 0.021569593 0.0219159 0.0039239367 0.04179491 0.08472522 -0.025880314 -0.026600897

trunk.4.weight f4 [2, 128]
00000000: a368 08bd 7d91 50bd b84c 9fbc 5c10 aa3d
00000010: e3e0 c8bc e139 05ba ca33 a8bc 1611 a9bd
00000020: 7b38 bf3c b612 983a 2d5e 653d 6e1a 23bd
00000030: 22ea a5bd 8c90 463d 3ff1 a4bd 155d 87bd
00000040: 8072 36bd c8a7 f1bc 452c 2e3d ee9b a3bd
00000050: 1a16 89bc 98c3 4ebc 1141 7a3c fdb9 a3bd
00000060: 1a24 3ebc 21de e9bc 4231 823c 0ae8 6d3d
00000070: 103e 06be e9ef 30bd cfad 96bd 39bb dbbc
00000080: f222 60bc dac3 b23c 5d9d afbc 50fd c1bd
00000090: d36a 1c3d 3719 c5bc 79f5 1dbd 4b2e d7bc
000000a0: b445 923c 3cab cf3c 8cc7 4b3d e2a8 a53d
000000b0: 10c0 98bd b307 c13c eedb 71bd dfef faba
000000c0: 2066 283d 6284 5a3d 903e a83d 3e14 13bd
000000d0: 020d 163d 4255 653d e743 d73d 8b57 d63d
000000e0: 1c17 08bc 7735 94bd 1e1b bc3d d7c5 0f3d
000000f0: 7f55 973d ed22 7a3d dc2c a73c 93d9 90bd
00000100: cf58 a93d d4bb b2bd 8595 3f3d 232d 8a3d
00000110: 3a04 adbd 013d bb3d 5af6 cfba 27ee 763c
00000120: 04ea 85bc c402 bdbd 3237 54bc 77f0 80bd
00000130: 37a8 d8bc 84c1 08bb eec1 a9bd 8b5f e13d
00000140: 8de7 10bd 77d2 25bd e17c 443c 0bb8 463c
00000150: e5fe 22bd fc4f 7c3d 143e a7ba 9550 cfbd
00000160: aeb6 9abc 90de 18bd 0b45 c4bd 72d9 483d
00000170: df7e 663d e111 033d e70f 9cbd 04c5 07bd
00000180: 3883 783d 6222 083d bf0e 4abd d23a ebbc
00000190: d973 9fbd dce2 a5bd e332 1abd 44a0 493d
000001a0: 5bf5 b5bd dc42 a8bd 6a7a 003b 7e99 b83c
000001b0: 864d 843d 5d2c 623d c56b 22bd b176 72bd
000001c0: c75a 063d d348 583d 552d 91bd 3fb5 1abd
000001d0: f4c8 dc3c 0b92 83bd ce4c a73d d47f e5bc
000001e0: 82a5 bfbc 24d0 333d 1fb9 893c aeb5 3e3b
000001f0: e221 3bbd 14cd 5ebd 70b4 dc3d c9d4 b73c
00000200: 6464 c83c 25d3 93bd 0e4a a0bd 7ff9 383d
00000210: 299b 0f3d 421d 743c 19c7 79bd 5125 fd3c
00000220: b16b 3abd e919 8b3d 775b d9bc 029d b7bb
00000230: 641a d0bd 4128 273d 155e 8b3d 3ce6 b93c
00000240: c90e 8cbd f44a 8f3c b32e 2c3b 8bbb 6dbd
00000250: 1234 113d 84dd 49bd 474e 8f3d 7908 343d
00000260: b4c4 b73c 9df7 ca3c a95c 1abd ae7a 93bd
00000270: 0346 073e 8fd6 a9bd 348f cdbd 88d9 ab3d
00000280: f3cd 87bd 14e6 08bc fc0a 5b3d af5c 43bd
00000290: 8b4a 893c 86b1 c7ba ed9c b83a a438 bc3b
000002a0: 8c62 e63c 6a42 ea3c 87d4 1bbd abfa a43c
000002b0: 9693 7abd cf02 8f3d 25df 1b3b ac51 783d
000002c0: 6bb9 f83c 5cac 413d b78c ae3c f2a4 adbb
000002d0: 0d32 853c 5812 db3b 4447 94bd b3ed b93d
000002e0: 101f adbd 25b8 fc3c f020 8cbd 85b8 923d
000002f0: 10d7 403d 3532 0f3d d47f 90bc ab23 80bc
00000300: 2a19 913c 67ca 4bbd e7fa efba bca2 68bd
00000310: c234 a93d 4c74 663d 1f5e 0b3c 15ff 953c
00000320: 0fe7 c8bc d02a c5bc d97c 593c afe7 22bd
00000330: c288 0b3c 88ca 973c 3e0f 833d e074 893d
00000340: c40b 11bb 5960 4abd 02d5 b33d 3af7 84bc
00000350: b894 223d 32d3 5bbc a2c1 02be 9909 68bd
00000360: 01df bb3c 5456 973d 02cd 7e3c 0451 013d
00000370: 09fa 10bd f2f0 8a3d f6c2 71bc c6bd 813d
00000380: 9137 033c cee9 62bc 87a8 b9bd 2745 9dbc
00000390: 9b64 92bd 73ee 6c3b cd73 923d 8da4 54bd
000003a0: 5f4f 8e3b f0f1 76bc 691a 0a3d 14c0 fabc
000003b0: 8aa7 80bd 6912 86bd 5095 923b 0108 243d
000003c0: 3c1e 8e3c 008f c93b 6d86 843c fd31 a7bd
000003d0: 1b1b ac3c bc67 b83c 0722 ec3c 5be9 d03c
000003e0: 4d57 c3bd 775f 1d3c bb1d 833d 873a e43c
000003f0: 791f 79bd d673 84bd 93b7 a4bd 758c e13c
-0.033302914 -0.05092 -0.019445762 0.083039016 -0.024521297 -0.0005082172 -0.020532507 -0.08255212
0.023342362 0.0011602256 0.055998016 -0.039820127 -0.08101298 0.048477694 -0.080538265 -0.06609551
-0.04454279 -0.02949895 0.042522687 -0.079887256 -0.016734172 -0.012619875 0.015274302 -0.07994459
-0.011605287 -0.028548302 0.015892629 0.058082618 -0.13109612 -0.043197546 -0.0735737 -0.026822673
-0.013680207 0.021821905 -0.021437341 -0.09472144 0.038187813 -0.024059875 -0.03856418 -0.026267191
0.017855503 0.025350206 0.04975085 0.080888525 -0.07458508 0.023563242 -0.059047632 -0.0019144973
0.04111302 0.053348906 0.08215058 -0.035907976 0.0366335 0.05598951 0.10510998 0.10465916
-0.008306291 -0.0723676 0.0918486 0.035100784 0.07389354 0.061068464 0.020407133 -0.07072749
0.08268892 -0.087272316 0.046773452 0.067468904 -0.08448072 0.09142495 -0.0015866265 0.015071428
-0.016346939 -0.09229043 -0.012952613 -0.06295865 -0.026447399 -0.0020867297 -0.08288942 0.110045515
-0.035377074 -0.040483918 0.011992664 0.01212884 -0.039793868 0.061599717 -0.001275959 -0.10122792
-0.018885937 -0.037321627 -0.095834814 0.049035497 0.056273337 0.031999473 -0.07620221 -0.033146873
0.060672015 0.033235915 -0.04933047 -0.028714571 -0.07785768 -0.080999106 -0.037646186 0.049225107
-0.088846885 -0.082158774 0.0019604214 0.022534128 0.06460099 0.05521809 -0.03965356 -0.059195224
0.032801416 0.052803826 -0.070887245 -0.037770506 0.02695129 -0.0642434 0.08168946 -0.028015055
-0.02339435 0.04389967 0.016811905 0.0029099989 -0.04568661 -0.054394796 0.10776603 0.022440331
0.024461932 -0.07218007 -0.07826625 0.045159813 0.03506008 0.014899554 -0.06098089 0.030901583
-0.04551286 0.06792051 -0.026532872 -0.0056034336 -0.101612836 0.040809873 0.06805054 0.022692792
-0.068387575 0.017491795 0.0026272952 -0.058040183 0.03545005 -0.04928352 0.06997352 0.043953393
0.022432663 0.024776274 -0.037686024 -0.07201134 0.13210301 -0.08292877 -0.100370795 0.083911
-0.066310786 -0.008355636 0.053477272 -0.04769581 0.016759178 -0.0015235401 0.0014084853 0.005744057
0.028123163 0.028596122 -0.03804448 0.020139059 -0.061175905 0.069829576 0.0023784128 0.060624763
0.030361852 0.047283515 0.021307332 -0.005299204 0.016259218 0.0066855364 -0.07240155 0.09078541
-0.0845319 0.030849526 -0.0684222 0.071641006 0.0470801 0.03495999 -0.017639078 -0.015642008
0.017712194 -0.049753573 -0.0018309028 -0.05679582 0.08262016 0.056263253 0.008506327 0.01831011
-0.02452424 -0.024068266 0.013274395 -0.039771732 0.008516492 0.018529192 0.063993916 0.06711745
-0.0022132257 -0.04940829 0.087808624 -0.016231168 0.03969261 -0.013417052 -0.12769178 -0.056649778
0.022933485 0.07389513 0.015551807 0.031571403 -0.035394702 0.06784238 -0.014755955 0.063350245
0.0080088535 -0.013849689 -0.09065347 -0.019198013 -0.07148095 0.003615287 0.071509935 -0.05191474
0.004342958 -0.015072331 0.033716593 -0.030609168 -0.062819555 -0.0654648 0.004473366 0.040046696
0.017348401 0.00615108 0.01617738 -0.081638314 0.021009019 0.022510402 0.02882482 0.025501898
-0.09538136 0.00960528 0.06402155 0.02785994 -0.06082103 -0.064674065 -0.080428265 0.027532795

trunk.4.bias f4 [2]
00000000: a4b0 403d aa6c 9b3d
0.047043458 0.075890854
